test2/model_save/chen_9.pth (torch, 588981 bytes, 10 tensors)

weight f4 [32, 3, 5, 5]
-0.12501724 0.06416321 0.010390535 -0.016466668 0.0772566 -0.12848178 0.17103562 0.011940968
-0.0021687425 0.099030256 -0.03021369 0.15414514 0.18180014 0.14453624 -0.099233456 -0.049389873
0.15529194 0.18284495 0.092089124 0.088992454 0.05440913 -0.06894453 -0.095157206 0.053906973
0.1325367 -0.03975038 -0.09965503 -0.09048933 -0.034443323 0.12473915 0.0070510507 0.14407523
0.088209495 -0.10021117 0.11631347 0.062023755 0.033655506 0.16276526 0.04055128 -0.082423806
0.006165683 -0.07280931 0.13138908 0.027264133 0.028837835 -0.08692385 0.08855116 -0.05538908
0.09590959 0.12741464 -0.1594527 -0.121052854 -0.06297439 -0.06016168 -0.08932229 -0.088652655
0.0056939125 -0.023263467 -0.11031475 -0.05075293 -0.08729922 -0.101969965 0.07696235 -0.07354781
-0.034783334 0.0216206 0.06289098 -0.06336309 -0.029635452 -0.17501795 -0.026188474 -0.14548519
-0.0064510694 -0.1505583 -0.109081015 0.053070314 0.10680928 0.15434231 0.056940615 0.0820628
0.124395125 0.09206232 0.060913745 0.057694547 0.09269573 0.10816545 0.0036626821 0.053362463
0.062908135 0.10900436 -0.07394068 0.13206033 0.11170772 0.148799 0.04586914 0.07303084
0.007981349 0.1522772 0.09041723 0.003858471 0.011193934 0.03033265 -0.03211475 0.035888534
-0.1141417 -0.07835782 -0.0035849293 -0.058785263 0.07012442 -0.10280639 -0.14709969 -0.1440093
-0.120926835 -0.007942161 -0.09432272 -0.083344996 0.0060398746 -0.042897128 0.06340247 -0.123216785
-0.17193264 -0.124802105 0.051312998 -0.078513384 -0.17789064 -0.11464448 -0.0064006625 0.09716563
-0.011772623 -0.024072047 0.014672436 -0.032606244 0.011688841 0.0037084483 -0.07741572 -0.061974548
0.033421334 0.07658759 -0.056788202 -0.108481474 0.022497129 -0.07213275 0.1082506 -0.010284622
0.02325054 0.02330277 -0.056941114 0.036309123 0.054215427 -0.12069874 0.04508377 0.031235175
0.025851216 0.061864693 0.06402668 0.14084397 -0.019019643 -0.00011637891 0.0014445335 0.11246473
-0.09012374 0.0678288 -0.10278619 0.074367 -0.091183715 0.012430574 0.025833702 0.13863872
0.14537759 -0.041299284 0.09507601 0.11817976 0.14973621 -0.012936375 0.0062471684 0.09594676
-0.034681536 0.08478181 0.12298567 0.06962774 0.09324424 0.0529841 -0.14429696 -0.065340936
-0.1011611 -0.11440877 -0.06724278 -0.16233502 -0.13309349 -0.011082799 -0.11804543 -0.10072064
0.084065825 -0.0620024 -0.021255367 0.12545115 0.014947721 0.060270384 -0.06270033 -0.08499794
0.027560601 -0.04134128 0.08004288 -0.117147624 -0.09752335 0.039104834 -0.16232231 -0.02802834
-0.1067382 -0.1423532 -0.12495223 -0.2039693 -0.1444986 -0.032812335 -0.103760675 -0.06325003
-0.070310816 -0.065196246 -0.07193377 -0.03702832 -0.07461691 -0.06626194 0.038358796 -0.055760004
0.020426605 0.009926797 0.15250267 0.10635235 0.03618568 0.11603712 -0.08564093 0.094737165
-0.11201108 0.017249387 0.1268142 -0.06587444 0.07225698 -0.105948225 0.021959772 0.021545416
0.054755103 0.032990325 -0.11796465 0.089747876 -0.061292455 0.085584424 -0.07797607 -0.056433
0.02795735 -0.03649238 -0.052939843 -0.027608717 -0.076788045 -0.12091065 0.0027507814 0.022646723
00000000: 8504 00be 0068 833d 103d 2a3c 1be5 86bc
00000010: b538 9e3d ba90 03be f623 2f3e 0da4 433c
00000020: 7621 0ebb 60d0 ca3d b382 f7bc 39d8 1d3e
00000030: d129 3a3e 4f01 143e e93a cbbd 094d 4abd
00000040: da04 1f3e b53b 3b3e 3999 bc3d ad41 b63d
00000050: 1cdc 5e3d ca32 8dbd c8e1 c2bd 8fcd 5c3d
00000060: b3b7 073e 4bd1 22bd f017 ccbd 7852 b9bd
00000070: 7114 0dbd 3d77 ff3d 800c e73b 7588 133e
00000080: 2ea7 b43d 843b cdbd c235 ee3d 9f0c 7e3d
00000090: 5bda 093d f0ab 263e 1919 263d d0cd a8bd
000000a0: 7f09 ca3b 0c1d 95bd dc8a 063e 0859 df3c
000000b0: 533d ec3c 2205 b2bd 505a b53d a9df 62bd
000000c0: 3f6c c43d fc78 023e 9247 23be 8fea f7bd
000000d0: b8f8 80bd 186c 76bd 9bee b6bd 868f b5bd
000000e0: 0094 ba3b 0793 bebc b3ec e1bd 4ee2 4fbd
000000f0: efc9 b2bd a1d5 d0bd 709e 9d3d 3ca0 96bd
00000100: f878 0ebd af1d b13c fccc 803d 82c4 81bd
00000110: 0cc6 f2bc e837 33be 3689 d6bc 12fa 14be
00000120: 7e63 d3bb f42b 1abe de65 dfbd 4260 593d
00000130: d3be da3d e90b 1e3e 903a 693d 8b10 a83d
00000140: dfc2 fe3d 2b8b bc3d b180 793d 1e51 6c3d
00000150: 42d7 bd3d d985 dd3d 9c09 703b 9992 5a3d
00000160: fbd5 803d ae3d df3d 366e 97bd d33a 073e
00000170: 04c7 e43d c45e 183e 48e1 3b3d 3191 953d
00000180: 34c4 023c 8eee 1b3e ab2c b93d 67de 7c3b
00000190: c366 373c 2d7c f83c c28a 03bd dbff 123d
000001a0: 20c3 e9bd 117a a0bd 22f1 6abb d1c8 70bd
000001b0: 649d 8f3d 288c d2bd 4da1 16be 2d77 13be
000001c0: 7da8 f7bd d61f 02bc 452c c1bd c8b0 aabd
000001d0: 24ea c53b e6b4 2fbd 27d9 813d 1559 fcbd
000001e0: 1c0f 30be 3f98 ffbd 942d 523d a0cb a0bd
000001f0: f728 36be baca eabd a6bc d1bb c6fe c63d
00000200: f6e1 40bc be32 c5bc a864 703c 208e 05bd
00000210: 8d82 3f3c 7009 733b 228c 9ebd 06d9 7dbd
00000220: cfe4 083d f4d9 9c3d bf9a 68bd 892b debd
00000230: e64b b83c 56ba 93bd 7eb2 dd3d d580 28bc
00000240: eb77 be3c 73e5 be3c 163b 69bd e0b8 143d
00000250: ff10 5e3d e730 f7bd c2a9 383d e9e0 ff3c
00000260: eec5 d33c d565 7d3d 6c20 833d 6739 103e
00000270: 15cf 9bbc 7410 f4b8 8056 bd3a e953 e63d
00000280: cc92 b8bd d3e9 8a3d 9181 d2bd ba4d 983d
00000290: 87be babd 9ba9 4b3c 33a1 d33c 4ff7 0d3e
000002a0: dddd 143e 7029 29bd 36b7 c23d 3b08 f23d
000002b0: 7354 193e 17f3 53bc 0cb5 cc3b bc7f c43d
000002c0: 3a0e 0ebd 16a2 ad3d e9df fb3d fd98 8e3d
000002d0: d6f6 be3d db05 593d 95c2 13be 78d1 85bd
000002e0: 8d2d cfbd 254f eabd 95b6 89bd 273b 26be
000002f0: a949 08be a194 35bc cdc1 f1bd 9f46 cebd
00000300: b42a ac3d 3bf6 7dbd bc1f aebc 4476 003e
00000310: 49e7 743c 14de 763d 0869 80bd 6613 aebd
00000320: c5c6 e13c 7955 29bd 85ed a33d 18eb efbd
00000330: 52ba c7bd 642c 203d d237 26be b09b e5bc
00000340: 8f99 dabd 0ac5 11be f4e6 ffbd 54dd 50be
00000350: 71f7 13be 3a66 06bd 7a80 d4bd 3b89 81bd
00000360: 1eff 8fbd 9c85 85bd 0352 93bd 02ab 17bd
00000370: c0d0 98bd 57b4 87bd 1d1e 1d3d 9a64 64bd
00000380: b255 a73c 01a4 223c a929 1c3e 43cf d93d
00000390: 7037 143d dfa4 ed3d 8364 afbd 8f05 c23d
000003a0: 1166 e5bd 964e 8d3c 95db 013e 2ee9 86bd
000003b0: 78fb 933d 62fb d8bd fbe4 b33c 0380 b03c
000003c0: e346 603d dd20 073d 7397 f1bd bccd b73d
000003d0: cc0d 7bbd e346 af3d ebb1 9fbd 4a26 67bd
000003e0: d006 e53c 0979 15bd 73d7 58bd ad2b e2bc
000003f0: 0d43 9dbd 01a0 f7bd 7446 343b 9f85 b93c

bias f4 [32]
-0.09283396 -0.2605216 0.25257868 -0.09341823 -0.17455615 -0.14726985 -0.15667056 0.071779296
0.13169406 0.008191705 0.20467989 0.07071358 -0.017633142 -0.20670013 0.088975295 -0.08347876
0.17429511 0.15875612 0.111299954 0.023582136 -0.10300628 0.004544009 -0.30130014 -0.04054209
-0.07725536 -0.08821064 -0.25584686 0.119561955 -0.2654777 -0.34170026 0.27646074 -0.013849137
00000000: bb1f bebd 1663 85be fe51 813e 0f52 bfbd
00000010: d9be 32be e8cd 16be 3f6e 20be 0601 933d
00000020: cfda 063e 8036 063c 9b97 513e 48d2 903d
00000030: 6173 90bc 33a9 53be ae38 b63d eaf6 aabd
00000040: 6b7a 323e f790 223e 3bf1 e33d 532f c13c
00000050: f5f4 d2bd e9e5 943b 0344 9abe 760f 26bd
00000060: 0f38 9ebd c8a7 b4bd 5cfe 82be e6dc f43d
00000070: b1ec 87be 56f3 aebe 438c 8d3e 7ee7 62bc

weight f4 [32, 32, 5, 5]
0.041398313 0.039043922 0.08114137 0.054029197 0.05956896 -0.0072155185 0.06658331 0.061414253
0.0024104132 -0.0056875683 0.011855381 -0.004099454 -0.0045796465 0.03815184 -0.0085091265 0.002271658
-0.016478082 -0.0061361147 -0.009060196 -0.0031812957 -0.06505157 0.005402871 -0.0054444983 -0.038289487
-0.025215603 0.051975563 0.07295561 0.014887035 0.07027132 0.019424893 0.00062499836 0.013003472
0.043544494 0.02960877 0.01912021 -0.017939607 -0.013718126 -0.0014069756 0.01414728 -0.006135075
-0.0038827516 0.0018646606 -0.044640742 -0.047507312 -0.04615641 -0.021684939 -0.04713384 -0.056201614
-0.06292645 -0.034843694 0.06593947 0.03840568 0.015931193 0.017926442 0.016333446 0.033954214
0.025323795 0.045991186 0.061667703 -0.0007373767 0.0030804663 0.08246087 0.08418133 0.05037121
0.0048248647 0.041044597 0.025290266 0.0928917 0.036191996 0.03476501 0.026066054 0.017893696
0.04985148 -0.006434962 -0.021693775 -0.02023881 -0.02462138 -0.033077348 0.029134551 0.03378115
0.03433743 0.023770599 0.020934347 0.028811144 0.023833554 0.007146144 0.020670176 0.03028392
0.04338622 0.019311668 -0.024901984 -0.0018984509 0.010657829 -0.019734766 -0.0010553894 0.009814042
-0.025910709 -0.0059812185 0.015104167 0.01760298 0.026217926 0.0011118238 0.034199804 0.032630723
0.035792448 0.0132912835 0.01513996 0.024370356 -1.1642654e-05 0.026975475 0.008647043 0.014243344
0.04258464 -0.02501401 -0.015719336 -0.04724519 0.0056427466 -0.034083888 0.020873006 -0.0059320624
0.0054477453 -0.05135802 -0.050121624 -0.022330975 -0.039651208 -0.030631898 -0.023948628 -0.0050807
0.021641402 0.023054684 0.019554902 0.007626254 0.0082226945 0.034083206 0.040176366 -0.008216145
0.029178368 0.024101418 0.013773658 0.011013375 -0.008206013 -0.0025335434 0.044481233 0.042494316
0.056435365 0.043634344 0.024857288 0.008352893 -0.00548636 0.0037034994 -0.044873353 0.011379479
0.0045820693 -0.044296734 -0.041948285 -0.010636067 0.028272746 0.00607605 -0.011251882 0.016778892
0.015288707 -0.018932903 -0.032265216 -0.015605116 0.031690218 0.067848116 0.017589597 0.01738172
0.001526413 -0.025802337 0.016316548 0.030096034 0.060876444 0.014895014 0.01001795 -0.02329983
-0.016541516 -0.021984525 -0.012343907 0.013299586 -0.045946594 -0.034333117 -0.034019858 -0.051509153
0.02299406 -0.019161046 0.020860285 0.0071693882 -0.0049477313 0.020491417 0.026088336 -0.013102974
0.0032323834 0.0034929388 0.037065763 -0.04116955 0.0058402843 0.033187218 0.04096555 0.02827739
0.03235557 -0.00082985306 -0.0009861258 0.004193455 -0.02061129 -0.016109414 0.026881523 -0.000487203
0.03576431 0.035028458 0.02969911 0.052766252 0.07860295 0.057035457 0.019873211 0.032564595
0.009162779 0.01697807 0.0721932 0.06390446 0.024236823 -0.0058008824 0.04292955 -0.027908083
-0.017288167 0.03134507 0.0007039005 0.00807418 0.004855745 -0.028931879 0.0049737096 0.04027071
0.033950526 -0.022497725 0.026747534 0.0013244915 0.037626732 0.022830702 -0.002347972 0.033274602
-0.0011944219 0.04317103 0.020591926 0.039842233 0.05966277 0.020216828 0.027319197 0.03960876
0.033262473 0.022919597 0.001042777 -0.013426683 -0.020031055 -0.008396362 -0.0038851833 -0.0481821
00000000: 4791 293d 85ec 1f3d 722d a63d b84d 5d3d
00000010: 95fe 733d 2870 ecbb d55c 883d 838d 7b3d
00000020: 06f8 1d3b c85e babb 123d 423c b654 86bb
00000030: dc10 96bb 1b45 1c3d dd69 0bbc 19e0 143b
00000040: 0bfd 86bc 7611 c9bb 3771 14bc 497d 50bb
00000050: c239 85bd 910a b13b c367 b2bb 70d5 1cbd
00000060: f490 cebc 54e4 543d c069 953d c0e8 733c
00000070: 69ea 8f3d f420 9f3c eed6 233a 840c 553c
00000080: b65b 323d 178e f23c fda1 9c3c 15f6 92bc
00000090: fec1 60bc 446a b8ba fec9 673c bd08 c9bb
000000a0: c375 7ebb a167 f43a 36d9 36bd 0797 42bd
000000b0: 810e 3dbd 9da4 b1bc 6a0f 41bd aa33 66bd
000000c0: 95df 80bd 43b8 0ebd 460b 873d 464f 1d3d
000000d0: 2282 823c 79da 923c b8cd 853c 9313 0b3d
000000e0: d973 cf3c 4161 3c3d 4697 7c3d 834c 41ba
000000f0: a6e1 493b 3fe1 a83d 4367 ac3d 0b52 4e3d
00000100: e619 9e3b 611e 283d 882d cf3c 013e be3d
00000110: 0f3e 143d c165 0e3d 7a88 d53c cd95 923c
00000120: 1131 4c3d 60dc d2bb 25b7 b1bc dccb a5bc
00000130: c7b2 c9bc 1d7c 07bd 95ab ee3c 1a5e 0a3d
00000140: 68a5 0c3d 8fba c23c 827e ab3c 5905 ec3c
00000150: 963e c33c 332a ea3b 8054 a93c fc15 f83c
00000160: c0b5 313d 8133 9e3c 3fff cbbc 71d5 f8ba
00000170: 2d9e 2e3c ceaa a1bc fe54 8aba 13cb 203c
00000180: b242 d4bc 19fe c3bb 7877 773c 2034 903c
00000190: fac6 d63c 9eba 913a 1815 0c3d cba7 053d
000001a0: 1a9b 123d afc3 593c 980d 783c 57a4 c73c
000001b0: d154 43b7 acfb dc3c 54ac 0d3c ea5c 693c
000001c0: 3b6d 2e3d 2eea ccbc d6c5 80bc 2c84 41bd
000001d0: cae6 b83b 8c9b 0bbd defd aa3c bf61 c2bb
000001e0: 0083 b23b ca5c 52bd 554c 4dbd 73ef b6bc
000001f0: 4e69 22bd bfef fabc ea2f c4bc 007c a6bb
00000200: 4f49 b13c 2ddd bc3c 9a31 a03c a8e5 f93b
00000210: 7bb8 063c d59a 0b3d f98f 243d 039d 06bc
00000220: 7907 ef3c 5670 c53c e9aa 613c 7171 343c
00000230: 8372 06bc ce09 26bb f431 363d 850e 2e3d
00000240: c528 673d edb9 323d 83a1 cb3c 93da 083c
00000250: ecc6 b3bb 69b6 723b 1fcd 37bd ff70 3a3c
00000260: 2f25 963b 7e70 35bd f7d1 2bbd e642 2ebc
00000270: 3f9c e73c 9a19 c73b d059 38bc e373 893c
00000280: 7c7d 7a3c 2d19 9bbc 8828 04bd 9aac 7fbc
00000290: 9acd 013d f4f3 8a3d 0f18 903c 1c64 8e3c
000002a0: ec11 c83a 6c5f d3bc 48aa 853c f58b f63c
000002b0: 9459 793d 380a 743c 5422 243c 49df bebc
000002c0: 1382 87bc e418 b4bc 193e 4abc 82e6 593c
000002d0: 7f32 3cbd e2a0 0cbd 6858 0bbd 43fb 52bd
000002e0: 0a5e bc3c a0f7 9cbc 30e3 aa3c 30ed ea3b
000002f0: 9420 a2bb 9edd a73c 35b7 d53c dbad 56bc
00000300: 65d6 533b cae9 643b 45d2 173d 67a1 28bd
00000310: db5f bf3b 52ef 073d 7ecb 273d fca5 e73c
00000320: 4687 043d 7f8a 59ba e440 81ba 4069 893b
00000330: 02d9 a8bc e4f7 83bc a436 dc3c 486f ffb9
00000340: 997d 123d 007a 0f3d 8c4b f33c 6d21 583d
00000350: 95fa a03d 039e 693d 25cd a23c 7462 053d
00000360: 7b1f 163c 9815 8b3c 07da 933d 57e0 823d
00000370: 4d8c c63c 5415 bebb e5d6 2f3d 7e9f e4bc
00000380: ea9f 8dbc b063 003d f785 383a 9149 043c
00000390: f11c 9f3b 8c02 edbc 80fa a23b e6f2 243d
000003a0: b50f 0b3d 264d b8bc a51d db3c 8f9a ad3a
000003b0: 7d1e 1a3d 7407 bb3c 6fe0 19bb f34a 083d
000003c0: 268e 9cba 1bd4 303d 66b0 a83c 9c31 233d
000003d0: f360 743d c39d a53c 82cc df3c cc3c 223d
000003e0: 3b3e 083d e1c1 bb3c caad 883a 97fb 5bbc
000003f0: 2b18 a4bc e590 09bc 8f9e 7ebb 985a 45bd

bias f4 [32]
0.065512806 -0.06440254 -0.012141998 -0.047291692 -0.0038831204 0.038600814 -0.010681969 -0.04328077
0.052780095 -0.08821836 0.040008437 -0.032239947 0.021637203 0.011752154 -0.060797285 -0.1087963
-0.062700555 -0.08354709 0.013239247 -0.048670758 0.022511058 -0.18390119 -0.04250958 -0.019303087
-0.00056757836 -0.05319555 0.040645037 0.110416174 -0.058371082 -0.0019792467 -0.019619357 0.06709462
00000000: 942b 863d 7be5 83bd 3bef 46bc efb4 41bd
00000010: f37b 7ebb e31b 1e3d 6d03 2fbc 2d47 31bd
00000020: f12f 583d d4ab b4bd e3df 233d 090e 04bd
00000030: 8140 b13c 1b8c 403c 9306 79bd 98d0 debd
00000040: 2669 80bd bd1a abbd 6de9 583c fd5a 47bd
00000050: 1c69 b83c 9850 3cbe 861e 2ebd 8221 9ebc
00000060: 8ac9 14ba 94e3 59bd 697b 263d e021 e23d
00000070: 8416 6fbd 40b6 01bb c6b8 a0bc e768 893d

weight f4 [64, 32, 5, 5]
-0.0054250136 -0.012564529 -0.005329581 -0.018894479 -0.0166338 0.029992465 0.04115132 0.02517951
0.0394515 0.0040517133 -0.03142843 0.028712066 -0.034444332 0.016212808 -0.023830142 0.02581752
-0.00540859 -0.045097128 -0.0003994958 0.014671163 -0.012523045 0.047456954 0.013574606 0.010969971
0.014602053 -0.025382211 -0.004686036 0.022253409 -0.03865809 -0.011200329 -0.025078217 0.027612818
0.043412577 -0.01073904 0.0035283347 0.016184993 0.0030187676 0.04692624 0.026052656 0.044008553
-0.0020192452 0.034470193 0.008935994 -0.0048067984 0.026603991 -0.04068938 0.009425558 0.027625995
-0.028571371 0.0319799 0.01797763 0.034305897 -0.024775552 -0.03085576 -0.021399422 0.018323433
0.0030573655 -0.010567567 -0.020435343 0.01698535 0.04488191 0.0037374932 -0.020121139 -0.009949281
0.0130194165 0.030310245 0.008765519 0.013275582 0.036273167 -0.013568029 0.0029552474 -0.019600203
0.03521516 0.031544834 0.012608582 0.013387054 -0.020846523 0.020751828 0.0058997213 0.05318268
0.03052144 0.017242149 0.0316262 -0.011664988 -0.027710294 0.047304563 -0.010769247 0.012531089
-0.041645847 -0.0033449805 -0.028703073 -0.0028010127 0.008737833 -0.04580358 -0.046547253 -0.023550369
-0.0029557832 -0.04219104 -0.05043431 0.017305225 -0.017935283 0.044188924 0.02307977 -0.007528325
-0.014772377 -0.026901301 0.0038259714 0.020346323 0.027350716 -0.0020101327 0.0085082995 -0.004668144
-0.021825138 0.048984483 -0.013465775 0.0011636266 -0.0052625104 -0.0064575076 0.030755972 0.019151894
-0.0236307 0.046241764 0.0134254005 0.016631683 0.022366991 -0.015273272 -0.0042145145 0.0007954241
0.031449232 -0.014652312 -0.04236322 0.046618793 0.036227144 0.034782324 -0.04623657 -0.047214396
0.0021702822 -0.0076425476 0.019345386 -0.011556403 -0.0007301194 -0.010028721 -0.0020488643 -0.010794472
0.0023917889 0.011895758 0.008466262 0.012720593 -0.032168105 -0.0033998832 -0.030808901 -0.01586795
0.023029845 -0.02965523 -0.04267738 -0.046800513 0.026696745 0.0075857006 0.0004044422 0.010009021
-0.002162922 0.0005103486 0.033038996 -0.022894768 0.026867617 0.0295579 0.006827644 -0.03169591
-0.0053354497 -0.013278748 -0.0057753576 0.023714893 -0.034812465 -0.037801627 -0.014046605 -0.025399745
-0.001222345 -0.028891766 -0.0056641223 0.0006891196 -0.010551717 0.03939322 -0.00072710565 -0.0022017523
-0.032844465 0.01719581 0.0036712952 0.02700412 -0.0030771003 0.014496608 0.0319153 -0.0019652708
-0.012250533 0.026858434 -0.016825357 0.0049635735 -0.022298483 0.035699986 -0.01805977 0.02064026
0.0036162809 -0.024947533 -0.023848232 -0.025580209 -0.0020317512 0.0014729775 -0.011559497 0.029403452
-0.03188055 0.027945064 -0.022129333 0.0036717993 0.014393886 0.026416682 0.022205478 -0.040451534
0.00076016143 -0.0047241286 -0.034171034 -0.036745425 -0.03268362 0.014455202 0.014002429 0.00625752
0.013660895 0.018977365 -0.025119534 -0.01153894 -0.019499468 -0.0078203725 -0.027243102 -0.02351861
-0.039613064 0.017617341 0.018189851 -0.0175056 0.009485836 -0.038223427 -0.01064541 0.027587643
-0.007074471 -0.017786123 0.017457293 -1.4685497e-05 -0.025995482 -0.033019308 0.0045641907 0.0012197519
-0.02503135 0.0030346215 -0.0070738317 -0.0250115 0.009714321 -0.007397687 -0.020295084 0.029352529
00000000: 50c4 b1bb 74db 4dbc c4a3 aebb 98c8 9abc
00000010: 9b43 88bc c2b2 f53c 498e 283d 4245 ce3c
00000020: e597 213d 3cc4 843b 19bb 00bd 9135 eb3c
00000030: 8015 0dbd b9d0 843c 6e37 c3bc 447f d33c
00000040: 8b3a b1bb c4b7 38bd 6b73 d1b9 515f 703c
00000050: 752d 4dbc 3962 423d 0668 5e3c 65bb 333c
00000060: 733d 6f3c 5bee cfbc 528d 99bb c84c b63c
00000070: f257 1ebd 9681 37bc d570 cdbc 4734 e23c
00000080: 63d1 313d ccf2 2fbc a23b 673b 6496 843c
00000090: 84d6 453b bb35 403d 616c d53c 5042 343d
000000a0: 5055 04bb 9e30 0d3d 4668 123c 5982 9dbb
000000b0: 9df0 d93c e8a9 26bd a86d 1a3c e94f e23c
000000c0: 820e eabc 5bfd 023d d345 933c 5784 0c3d
000000d0: 19f6 cabc 38c5 fcbc d74d afbc 061b 963c
000000e0: 155e 483b 9723 2dbc 0568 a7bc dc24 8b3c
000000f0: 18d6 373d bbf0 743b 16d5 a4bc 4f02 23bc
00000100: 644f 553c 314d f83c 409d 0f3c d481 593c
00000110: 2c93 143d 704c 5ebc d3ac 413b 9b90 a0bc
00000120: c63d 103d 2835 013d 3a94 4e3c 6055 5b3c
00000130: 54c6 aabc bdff a93c 7352 c13b 15d6 593d
00000140: 1908 fa3c 683f 8d3c 798a 013d 811e 3fbc
00000150: b300 e3bc 6ec2 413d 7f71 30bc 324f 4d3c
00000160: d694 2abd 7637 5bbb b522 ebbc 3291 37bb
00000170: 2129 0f3c 899c 3bbd 55a8 3ebd b4ec c0bc
00000180: d0b5 41bb 83d0 2cbd 3594 4ebd b0c3 8d3c
00000190: 04ed 92bc 72ff 343d c911 bd3c 2bb0 f6bb
000001a0: d707 72bc 1e60 dcbc 26bd 7a3b 55ad a63c
000001b0: 9c0e e03c 6ebc 03bb 6566 0b3c 3bf7 98bb
000001c0: a2ca b2bc f4a3 483d 8e9f 5cbc d484 983a
000001d0: 2371 acbb 8099 d3bb f3f3 fb3c 6fe4 9c3c
000001e0: 2b95 c1bc 0168 3d3d 36f6 5b3c 2b3f 883c
000001f0: fb3a b73c bf3c 7abc e919 8abb 0284 503a
00000200: e9d0 003d 4010 70bc 0e85 2dbd 59f3 3e3d
00000210: ea62 143d e977 0e3d 8f62 3dbd e263 41bd
00000220: 4b3b 0e3b 566e fabb 377a 9e3c 1157 3dbc
00000230: 7c65 3fba 814f 24bc 3d46 06bb 4cdb 30bc
00000240: 8fbf 1c3b 6de6 423c 14b6 0a3c 096a 503c
00000250: b4c2 03bd 93d0 5ebb f362 fcbc 81fd 81bc
00000260: 16a9 bc3c 86ef f2bc 7ace 2ebd e5b1 3fbd
00000270: 22b3 da3c 7891 f83b 500b d439 e0fc 233c
00000280: cfbf 0dbb eac8 053a e653 073d cf8d bbbc
00000290: 7a19 dc3c 6923 f23c 6eba df3b 92d3 01bd
000002a0: ffd4 aebb 1b8f 59bc 363f bdbb bc45 c23c
000002b0: 8497 0ebd e1d5 1abd bb23 66bc 2013 d0bc
000002c0: 1837 a0ba 6dae ecbc 1a9a b9bb 09a6 343a
000002d0: 1ce1 2cbc c95a 213d 3c9b 3eba 464b 10bb
000002e0: eb87 06bd 3ade 8c3c 1d9a 703b bf37 dd3c
000002f0: 2da9 49bb 2e83 6d3c 9eb9 023d c6cb 00bb
00000300: 76b6 48bc 3806 dc3c 55d5 89bc 79a5 a23b
00000310: 4fab b6bc 263a 123d 15f2 93bc c315 a93c
00000320: 20ff 6c3b c55e ccbc 5e5d c3bc 968d d1bc
00000330: 2127 05bb ec10 c13a 0b64 3dbc 82df f03c
00000340: 2e95 02bd 0ced e43c 9348 b5bc 92a2 703b
00000350: 55d4 6b3c cc67 d83c 43e8 b53c 82b0 25bd
00000360: 9245 473a ddcc 9abb edf6 0bbd 5f82 16bd
00000370: 42df 05bd 83d5 6c3c 726a 653c e20b cd3b
00000380: f2d1 5f3c 6b76 9b3c 7bc7 cdbc d20d 3dbc
00000390: 59bd 9fbc 0521 00bc ed2c dfbc 1aaa c0bc
000003a0: 4f41 22bd 3e52 903c e202 953c e767 8fbc
000003b0: 7b6a 1b3c 2b90 1cbd 166a 2ebc 7bff e13c
000003c0: f7d0 e7bb 34b4 91bc 9902 8f3c bb61 76b7
000003d0: 7af4 d4bc 413f 07bd 358f 953b 15e0 9f3a
000003e0: 8c0e cdbc 80e0 463b 9acb e7bb ebe4 ccbc
000003f0: d128 1f3c 4c68 f2bb e041 a6bc b774 f03c

bias f4 [64]
-0.013260725 0.01090961 0.009366431 -0.024476307 -0.07746858 0.0012542346 -0.022493308 -0.032726582
-0.011811609 -0.08248905 -0.037792657 -0.028885968 -0.007613054 -0.026506701 -0.022386046 -0.06586443
-0.043589406 -0.029949935 -0.041838728 -0.006947225 -0.04659128 -0.026416542 -0.0388656 -0.02189737
-0.053677727 -0.011187156 0.012528424 0.0071903137 -0.028658673 -0.035449807 -0.033840302 -0.07519246
-0.07555698 -0.05459274 0.020728286 0.05761303 0.009880989 -0.011411466 -0.030772531 -0.026387736
-0.08631983 0.00025599927 0.0005142087 -0.073008254 -0.03310353 0.0057137967 -0.026962813 -0.06087917
0.003952604 0.0056633055 -0.06920939 -0.036730714 -0.032022916 0.0003208835 -0.05736247 -0.05274104
-0.01242988 -0.01733105 0.022863964 -0.03405655 -0.034582153 -0.03115979 -0.031429153 -0.022968074
00000000: 8343 59bc 39be 323c a975 193c 8982 c8bc
00000010: d9a7 9ebd 2165 a43a e343 b8bc 4f0c 06bd
00000020: 7b85 41bc 05f0 a8bd 79cc 1abd 44a2 ecbc
00000030: ed76 f9bb 9524 d9bc f162 b7bc eee3 86bd
00000040: ce8a 32bd 9159 f5bc 165f 2bbd 8ca5 e3bb
00000050: 7fd6 3ebd 8167 d8bc 8931 1fbd 1d62 b3bc
00000060: 2ddd 5bbd 554a 37bc 0544 4d3c b99c eb3b
00000070: 98c5 eabc d133 11bd 219c 0abd 81fe 99bd
00000080: 9ebd 9abd a39c 5fbd 5ece a93c a4fb 6b3d
00000090: dfe3 213c 28f7 3abc ad16 fcbc 182b d8bc
000000a0: 73c8 b0bd a437 8639 f6cb 063a 5a85 95bd
000000b0: 9197 07bd cd3a bb3b 1ee1 dcbc 705c 79bd
000000c0: d884 813b 4093 b93b a7bd 8dbd f272 16bd
000000d0: 762a 03bd 413c a839 e9f4 6abd fd06 58bd
000000e0: b2a6 4bbc d9f9 8dbc 354d bb3c e27e 0bbd
000000f0: 04a6 0dbd d142 ffbc dbbb 00bd 8b27 bcbc

weight f4 [64, 1024]
-0.014820242 -0.033952184 -0.012851665 -0.0052519795 0.031996816 0.0121816 0.0121236285 -0.0027702407
0.025883622 0.014893329 0.033522353 0.02164947 0.020685606 -0.01027269 0.0026160735 -0.006674617
-0.04465772 0.010358414 -0.025556963 0.014106585 -0.0019169982 -0.0017217629 -0.013724399 0.035130538
0.035994988 0.012201546 0.013850362 0.0010833998 -0.022595692 0.058244023 0.02624421 -0.014468135
-0.011148844 0.0012808513 -0.029558118 -0.03467641 0.037015304 -0.005987787 -0.018339636 -0.019609688
0.022714915 -0.03638595 -0.023150353 0.016157806 -0.04008159 -0.0052163447 -0.015247583 -0.06020314
-0.018266387 0.015167322 0.008657637 -0.0154465 -0.0070557846 0.0049458225 0.047257256 -0.006370157
0.025499742 0.04362193 -0.010381374 -0.0022174986 0.028564949 0.026526557 -0.022967933 0.006544691
-0.020297557 -0.024308665 -0.002240214 -0.0017883279 0.030867286 0.014547797 0.029207436 0.033281732
0.040253542 0.033071145 0.031995237 0.04045646 -0.046087172 0.026899885 0.021440195 -0.023397695
-0.003622208 -0.02143608 0.024628596 -0.018886171 -0.019181335 -0.034030713 0.014590084 0.020629939
-0.019325411 -0.039180372 -0.059892148 -0.017708587 -0.04946362 -0.0018121463 -0.009848993 0.029208722
0.020278689 -0.011978873 -0.0016449171 0.0005651612 -0.008859322 0.020090375 -0.048292775 -0.02792375
0.030167537 0.013884171 -0.012267937 -0.031879537 -0.046184648 -0.03958044 -0.0009443423 0.01299246
0.027650569 0.01341759 0.002577439 -0.025375336 -0.014252349 -0.037596438 0.0050493176 -0.013582215
0.019168293 -0.008471241 0.0130893085 0.025633713 0.036718808 0.0009783779 -0.011766133 -0.0023231574
-0.0066016745 -0.026439512 -0.013308343 -0.018564995 0.011698458 0.016978413 -0.024567379 0.02145434
0.001175155 0.013365494 -0.02900812 -0.054589115 -0.03439838 -0.029899998 -0.008545725 -0.030377692
0.0072079715 -0.018461738 -0.011077407 -0.010940249 0.0027466437 -0.005533237 0.029256074 -0.02223868
0.036190163 0.014814919 -0.031197162 -0.0053844755 0.0024825865 0.00036577226 -0.0055625243 -0.015450505
0.011611476 0.01663764 -0.021083454 -0.0111491 -0.003422768 -0.016643444 0.01021986 0.013563621
0.006210299 0.021396268 0.0026063863 0.028456116 -0.018350579 -0.024321536 0.030957019 0.023968449
-0.013970462 -0.018026026 -0.0069929035 -0.014711297 -0.029248023 -0.0065450547 -0.011409294 0.035511956
0.0071579134 -0.040749174 0.005865079 0.014227641 -0.040656995 -0.0155620435 -0.0478288 -0.05323216
-0.017044373 0.00228975 0.026120031 0.040111803 0.02461622 -0.014168212 -0.01200501 0.049042977
0.024432683 0.0027017917 -0.02203989 0.036674365 -0.003419404 -0.032229673 -0.00032607993 0.026349697
-0.005175086 -0.003156742 -0.0016965127 -0.027548354 0.034822438 0.015349018 0.015909432 0.016239727
-0.021607365 0.010723051 0.04600663 0.021070376 0.012875759 -0.005255346 -0.0050820117 -0.012053367
0.0067276177 0.00027037898 -0.040241107 -0.009955413 0.008958226 -0.011549404 0.031814735 -0.0043785805
0.008967641 0.022570062 -0.023520298 -0.02828593 -0.0023092288 -0.013735588 -0.049839757 -0.036715858
-0.0036634577 -0.011872214 -0.014063039 -0.015344347 -0.043268055 -0.014998427 -0.026774393 -0.026099054
0.01896607 -0.036859218 -0.03126909 0.0032481276 0.07919664 0.045439363 0.08275885 0.049185652
00000000: 9ad0 72bc 7211 0bbd ca8f 52bc cc18 acbb
00000010: 180f 033d 5595 473c 2fa2 463c ed8c 35bb
00000020: e409 d43c 2603 743c bc4e 093d 3b5a b13c
00000030: dc74 a93c c94e 28bc 6e72 2b3b bfb6 dabb
00000040: 03eb 36bd 56b6 293c d65c d1bc 4e1f 673c
00000050: c943 fbba c7ac e1ba 4ddc 60bc 0ae5 0f3d
00000060: 7b6f 133d fee8 473c a1ec 623c dd00 8e3a
00000070: 9a1a b9bc 4991 6e3d 19fe d63c c20b 6dbc
00000080: a4a9 36bc 3de2 a73a de23 f2bc da08 0ebd
00000090: 5c9d 173d 3335 c4bb 013d 96bc 7fa4 a0bc
000000a0: a114 ba3c 6f09 15bd cfa5 bdbc 605d 843c
000000b0: 982c 24bd dfed aabb 00d1 79bc 9197 76bd
000000c0: 64a3 95bc 5c80 783c c3d8 0d3c 5113 7dbc
000000d0: 3634 e7bb 9110 a23b d390 413d c0bc d0bb
000000e0: d6e4 d03c e9ac 323d a316 2abc 7453 11bb
000000f0: 0a01 ea3c 394e d93c 3f27 bcbc d974 d63b
00000100: 1047 a6bc f722 c7bc 8ed0 12bb 5466 eaba
00000110: 64dd fc3c e259 6e3c 6f44 ef3c 6d52 083d
00000120: e6e0 243d 9c75 073d 700d 033d acb5 253d
00000130: e7c5 3cbd 265d dc3c 59a3 af3c 86ac bfbc
00000140: 9162 6dbb b89a afbc e9c1 c93c 2cb7 9abc
00000150: 2d22 9dbc ca63 0bbd 3f0b 6f3c 1e00 a93c
00000160: 5350 9ebc 997b 20bd 7851 75bd 9911 91bc
00000170: 5d9a 4abd 8a85 edba ac5d 21bc 2147 ef3c
00000180: 7e1f a63c 0943 44bc 429a d7ba 5327 143a
00000190: b126 11bc 9294 a43c a5ce 45bd 59c0 e4bc
000001a0: e921 f73c 6f7a 633c 75ff 48bc 1e94 02bd
000001b0: 1d2c 3dbd 191f 22bd bd8d 77ba 54de 543c
000001c0: 7283 e23c 74d5 5b3c 40ea 283b f0df cfbc
000001d0: af82 69bc b9fe 19bd bf74 a53b f087 5ebc
000001e0: d306 9d3c f6ca 0abc 8a74 563c cbfd d13c
000001f0: 7666 163d ea3c 803a bdc6 40bc 1d40 18bb
00000200: dc52 d8bb ad97 d8bc 3c0b 5abc 9e15 98bc
00000210: e4aa 3f3c 5016 8b3c 8741 c9bc 03c1 af3c
00000220: a907 9a3a f2fa 5a3c 70a2 edbc d698 5fbd
00000230: 51e5 0cbd d7f0 f4bc 5e03 0cbc a3da f8bc
00000240: d930 ec3b 123d 97bc 037e 35bc bb3e 33bc
00000250: 0901 343b 2850 b5bb 6faa ef3c e42d b6bc
00000260: 233c 143d 46ba 723c 3191 ffbc 4170 b0bb
00000270: e4b2 223b 1fc5 bf39 d645 b6bb 1d24 7dbc
00000280: 0f3e 3e3c a94b 883c 35b7 acbc b7aa 36bc
00000290: 8550 60bb d557 88bc 3371 273c f339 5e3c
000002a0: c47f cb3b 3a47 af3c e8cf 2a3b cd1c e93c
000002b0: f453 96bc f53d c7bc 9399 fd3c 7b59 c43c
000002c0: 5de4 64bc 51ab 93bc ba24 e5bb a707 71bc
000002d0: 8d99 efbc e677 d6bb 0cee 3abc fc74 113d
000002e0: ee8c ea3b 9be8 26bd d92f c03b 0d1b 693c
000002f0: f387 26bd f1f7 7ebc 22e8 43bd f709 5abd
00000300: a4a0 8bbc a10f 163b adf9 d53c 464c 243d
00000310: f4a7 c93c ca21 68bc a9b0 44bc 4ae1 483d
00000320: 0d27 c83c 8b10 313b 008d b4bc dc37 163d
00000330: 1418 60bb 4303 04bd b5f5 aab9 52db d73c
00000340: c593 a9bb 58e1 4ebb 855d deba 16ad e1bc
00000350: f9a1 0e3d 737a 7b3c 7f54 823c 2d09 853c
00000360: ee01 b1bc bcaf 2f3c 7371 3c3d c89b ac3c
00000370: d9f4 523c 0a35 acbb 0187 a6bb 7c7b 45bc
00000380: 5973 dc3b a7c1 8d39 dcd3 24bd 071c 23bc
00000390: 86c5 123c b639 3dbc 2b50 023d 327a 8fbb
000003a0: 03ed 123c dae4 b83c a4ad c0bc e5b7 e7bc
000003b0: 6e56 17bb 3b0b 61bc c624 4cbd 5e63 16bd
000003c0: 9f16 70bb ad83 42bc a968 66bc db66 7bbc
000003d0: d839 31bd f6bb 75bc f955 dbbc afcd d5bc
000003e0: bb5e 9b3c b1f9 16bd 0414 00bd 8ade 543b
000003f0: d931 a23d a01e 3a3d 797d a93d e576 493d

bias f4 [64]
0.014653885 -0.006033804 0.020102829 -0.009947493 0.00569922 0.017957022 0.030092841 -0.018532664
-0.0006030198 -0.011567793 0.025271669 -0.004214417 0.016126081 0.053667277 -0.023932172 0.026556341
-0.016596796 -0.022622446 0.05838867 -0.06394691 -0.004284009 -0.0070773615 0.006468858 -0.007932894
0.005278425 -0.019190421 0.028893085 -0.011629678 -0.018741254 0.06387472 0.033039622 -0.015183497
-0.03061348 -0.011461152 -0.0021196136 0.024415161 0.0059152422 0.016737439 -0.043840967 -0.008375867
0.008011083 0.0039570895 0.003091964 0.035163466 -0.029858064 0.0020826575 -0.03755316 -0.014544906
-0.043970726 -0.028258648 0.023717994 -0.0033723111 -0.017451346 -0.0009429318 -0.056104697 -0.026714785
-0.0040802234 0.062076923 0.04145149 0.020554133 0.0012318259 0.007454632 0.04369189 0.025071895
00000000: d916 703c 37b7 c5bb b0ae a43c cffa 22bc
00000010: 86c0 ba3b 9b1a 933c 4385 f63c d0d1 97bc
00000020: f913 1eba d786 3dbc 8806 cf3c 1819 8abb
00000030: d81a 843c 38d2 5b3d 670d c4bc af8c d93c
00000040: 01f6 87bc b552 b9bc f528 6f3d 99f6 82bd
00000050: df60 8cbb 36e9 e7bb b7f8 d33b f8f8 01bc
00000060: a3f6 ac3b 3b35 9dbc 31b1 ec3c 688a 3ebc
00000070: 4287 99bc c0d0 823d 8e54 073d 34c4 78bc
00000080: 1fc9 fabc 8ec7 3bbc 37e9 0abb 4e02 c83c
00000090: a6d4 c13b f41c 893c 9692 33bd ef3a 09bc
000000a0: eb40 033c 79aa 813b 8ca2 4a3b 9107 103d
000000b0: e698 f4bc 327d 083b 58d1 19bd c24d 6ebc
000000c0: a61a 34bd ae7e e7bc 3d4c c23c fe01 5dbb
000000d0: 20f6 8ebc 152f 77ba 0ace 65bd f7d8 dabc
000000e0: 65b3 85bb 5f44 7e3d 0ac9 293d 2461 a83c
000000f0: 3875 a13a fc45 f43b 44f6 323d 9363 cd3c

weight f4 [10, 64]
-0.059478555 0.11808819 0.037283383 -0.033140708 -0.23233165 -0.1785064 0.012688717 0.012811388
-0.058757685 0.025449216 -0.11658027 0.0995485 0.1165389 -0.10726941 0.132627 0.07340827
0.083667286 0.06639518 -0.13512722 0.05985145 0.04185108 0.17894872 0.05447071 -0.101580046
0.034659237 0.061353963 -0.02842836 0.027796088 0.14658017 -0.036376555 -0.16414548 0.0150154
0.20085931 -0.14749391 -0.11131167 0.076528445 -0.011267406 -0.13226704 0.010428092 0.09613128
0.017588045 -0.08176368 0.16260903 -0.069758296 -0.045450006 0.09806325 -0.2382722 -0.10245025
0.06726074 0.108056754 -0.08405785 -0.1983345 -0.17179331 0.20693523 0.04339321 -0.080767326
0.064740434 -0.19994491 0.15308228 0.031511284 -0.01656991 -0.088525645 0.14804438 -0.11842018
-0.22645068 0.09791578 0.3254007 0.05412678 0.19748749 -0.02941537 -0.02633771 -0.03857233
-0.25448078 -0.21661377 0.21683314 -0.03652621 -0.12424408 -0.21147773 -0.14861874 0.14425212
-0.115455 0.023166591 0.04910978 0.011631321 -0.081789 0.026494907 0.1331873 -0.15654096
0.16982199 0.16406709 0.08303901 -0.006966265 -0.22655016 -0.14725398 0.22642791 -0.16001864
0.10642287 0.08012378 -0.042609576 0.020236623 0.13194266 -0.07037378 0.19644544 0.08461709
-0.101485714 0.104090616 -0.10447389 -0.12021108 -0.008092769 0.17992543 0.18329652 0.066707216
0.08896154 -0.006672174 -0.2947008 0.015604688 0.16135229 -0.093163595 -0.21827087 0.04799307
-0.046263102 0.17374277 -0.002786026 0.23805426 0.013359451 -0.16210908 -0.09860702 0.08089687
-0.018318424 -0.028186528 -0.16047187 0.10403924 -0.20061901 -0.20409752 -0.041626852 -0.11508027
0.13538705 0.28957582 -0.013603581 -0.03426692 0.17570628 0.21303323 0.09230985 0.06722275
0.08738787 -0.0712475 0.08707663 -0.111644946 -0.14868405 0.10816064 0.09258588 0.068356745
-0.14026314 -0.01768187 -0.12264225 0.021932019 0.055192977 0.14993021 0.14846615 0.054403994
-0.1337866 0.105897255 -0.17090933 0.13466099 -0.0048332675 -0.020843336 -0.008710557 -0.12732439
-0.21838507 0.14197095 -0.089684375 -0.1784651 -0.063290134 -0.14915399 0.028844167 0.05726628
-0.092654504 0.14319386 0.01808304 -0.13789889 0.05632902 0.17746276 0.08397224 0.066991396
-0.14162534 0.011019933 -0.22528505 -0.029054048 -0.056661192 0.14711381 0.08876721 -0.11580119
-0.1178352 -0.15708582 -0.17069367 -0.025836967 0.13387895 0.017323446 -0.08796615 -0.04398045
0.09637523 0.17377046 -0.1273698 0.1159393 0.051783033 0.085853025 -0.0012042632 0.067959905
0.05796561 -0.13142094 0.17383197 -0.056619797 -0.07905831 -0.14192905 0.091214254 0.02390303
-0.18554325 0.06909198 -0.10044024 -0.13096802 0.067688115 -0.14904492 -0.029305892 0.112473115
-0.1142865 -0.038030382 0.06495891 0.1417828 0.07013981 0.122309044 0.15647289 -0.09036867
-0.040264096 -0.077336945 0.10151577 0.09141966 0.023064226 0.14545336 0.028280087 -0.050414253
-0.133089 0.14109349 0.1553625 0.06278756 0.16476429 0.05677387 -0.005515505 -0.12049995
0.08127259 -0.10901047 0.11171357 0.06640312 0.1122654 0.11578305 -0.064164296 0.12974708
00000000: c99f 73bd 39d8 f13d 76b6 183d 8dbe 07bd
00000010: 59e8 6dbe 62ca 36be 56e4 4f3c dbe6 513c
00000020: e6ab 70bd e07a d03c a3c1 eebd 15e0 cb3d
00000030: f2ab ee3d 10b0 dbbd 5fcf 073e 1357 963d
00000040: c159 ab3d 32fa 873d ca5e 0abe cb26 753d
00000050: 0a6c 2b3d 553e 373e ae1c 5f3d 3309 d0bd
00000060: d8f6 0d3d 4b4e 7b3d 98e2 e8bc 9fb4 e33c
00000070: 1d19 163e 95ff 14bd c115 28be 2703 763c
00000080: 10ae 4d3e a508 17be 5ff7 e3bd f2ba 9c3d
00000090: ed9a 38bc 0371 07be 97da 2a3c 7ae0 c43d
000000a0: ce14 903c b773 a7bd fb82 263e 70dd 8ebd
000000b0: c929 3abd 63d5 c83d a1fd 73be 70d1 d1bd
000000c0: 00c0 893d dc4c dd3d 8626 acbd 3318 4bbe
000000d0: 96ea 2fbe d4e6 533e 14bd 313d 5769 a5bd
000000e0: a296 843d 5cbe 4cbe 9ac1 1c3e fa11 013d
000000f0: 9fbd 87bc ef4c b5bd f298 173e 4886 f2bd
00000100: b0e2 67be 1288 c83d ec9a a63e 0bb4 5d3d
00000110: 293a 4a3e 81f8 f0bc 2ec2 d7bc 05fe 1dbd
00000120: 4e4b 82be 00d0 5dbe 8209 5e3e 829c 15bd
00000130: ae73 febd 9e8d 58be 832f 18be d4b6 133e
00000140: ac73 ecbd ddc7 bd3c 5627 493d 4c91 3e3c
00000150: fe80 a7bd d90b d93c 4062 083e 464c 20be
00000160: d1e5 2d3e 3401 283e 5b10 aa3d 4445 e4bb
00000170: c4fc 67be bfc9 16be b8dc 673e eddb 23be
00000180: 3cf4 d93d f017 a43d 6187 2ebd 46c7 a53c
00000190: fa1b 073e 2120 90bd fe28 493e ba4b ad3d
000001a0: bed7 cfbd 762d d53d 68f6 d5bd 3a31 f6bd
000001b0: 8997 04bc 5f3e 383e 15b2 3b3e cb9d 883d
000001c0: 7831 b63d 41a2 dabb 06e3 96be ceaa 7f3c
000001d0: 8939 253e 8ecc bebd 6682 5fbe 6294 443d
000001e0: 617e 3dbd a0e9 313e c395 36bb 7fc4 733e
000001f0: 99e1 5a3c ecff 25be 7af2 c9bd 42ad a53d
00000200: 8510 96bc 6fe7 e6bc bd52 24be 8612 d53d
00000210: 126f 4dbe f1fe 50be eb80 2abd 34af ebbd
00000220: e7a2 0a3e 4843 943e 8ee1 5ebc 785b 0cbd
00000230: 59ec 333e 6225 5a3e f20c bd3d 15ac 893d
00000240: 69f8 b23d 36ea 91bd 3b55 b23d 1ba6 e4bd
00000250: a240 18be 5383 dd3d aa9d bd3d 9ffe 8b3d
00000260: 24a1 0fbe 92d9 90bc dc2b fbbd c7aa b33c
00000270: 0812 623d 4e87 193e 8307 183e b9d6 5e3d
00000280: 5bff 08be a9e0 d83d db02 2fbe 92e4 093e
00000290: 6360 9ebb a5bf aabc b9b6 0ebc 5361 02be
000002a0: 56a0 5fbe d560 113e 71ac b7bd 8ebf 36be
000002b0: 429e 81bd d3bb 18be 9a4a ec3c 0c90 6a3d
000002c0: a5c1 bdbd 69a1 123e e222 943c 5e35 0dbe
000002d0: 42b9 663d ccb8 353e a3f9 ab3d c932 893d
000002e0: 3c06 11be f38c 343c 20b1 66be c102 eebc
000002f0: 9115 68bd 01a5 163e 95cb b53d 2d29 edbd
00000300: 9553 f1bd 1bdb 20be 52ca 2ebe 0ca8 d3bc
00000310: 9017 093e e6e9 8d3c 9927 b4bd d824 34bd
00000320: 6060 c53d e2f0 313e 3b6d 02be 9571 ed3d
00000330: 721a 543d b6d3 af3d 5ed8 9dba 902e 8b3d
00000340: 596d 6d3d 3693 06be 0201 323e 29ea 67bd
00000350: 53e9 a1bd d955 11be 8ace ba3d 4ad0 c33c
00000360: 0dff 3dbe 1980 8d3d 9db3 cdbd 7b1c 06be
00000370: 11a0 8a3d 3b9f 18be e912 f0bc 4e58 e63d
00000380: 0a0f eabd bfc5 1bbd 2d09 853d 832f 113e
00000390: 76a5 8f3d 2a7d fa3d 6e3a 203e 3613 b9bd
000003a0: f7eb 24bd d562 9ebd 80e7 cf3d 3b3a bb3d
000003b0: 30f1 bc3c baf1 143e a4ab e73c 2d7f 4ebd
000003c0: 7c48 08be d07a 103e 5917 1f3e c496 803d
000003d0: f8b7 283e b88b 683d 69bb b4bb aec8 f6bd
000003e0: 3e72 a63d e240 dfbd 16ca e43d 5cfe 873d
000003f0: 67eb e53d aa1f ed3d 9268 83bd 6bdc 043e

bias f4 [10]
-0.03903507 -0.027564038 -0.046960283 0.12986688 0.11637115 -0.024329156 0.12611651 -0.032299176
0.10287548 -0.007424068
00000000: 3de3 1fbd facd e1bc 6d59 40bd d3fb 043e
00000010: ff53 ee3d f04d c7bc b024 013e 244c 04bd
00000020: 61b0 d23d 9945 f3bb
